reinforcement_learning/models_cartpole/cartpole.pt (torch, 655452 bytes, 6 tensors)

fc1.weight f4 [400, 4]
00000000: 4550 c13c a983 1f3c 5e38 09bf 24c2 273f
00000010: 8292 b83d 1497 fdbe 56bd 9dbf 8bef ecbd
00000020: aef9 0a3f 2af1 d4be 3abf 42be 5ada 93be
00000030: 03f7 bb3b 105c 2bbd a02e 94bf 0758 6abe
00000040: c8fa 193e 1ba2 dfbc 1858 8f3e 837e 223f
00000050: 33fe bebb fad5 903a e688 87bf b209 1fbd
00000060: 9362 1e3b 62e1 c7bd 1fe4 b3bf 2e25 003f
00000070: 0312 c5be 60ab 25be b43a 603e 27b2 57be
00000080: 812f 6abd 2985 e03c 4b6d 0bbf b76c d23e
00000090: 03dc d63e 0d23 c6be e132 52bf f462 843d
000000a0: 9132 cbbe 7ab0 b23e df7c 9fbe 80fb de3e
000000b0: 8b71 98bc d43a 6dbe 76a7 79bf e69a 31be
000000c0: 3d8c 903e 2a8b 3cbe 95d5 60bf 7b3c a3bd
000000d0: be2b 75be 3fbe 38bd 5a19 b9be c85d eabd
000000e0: 7e56 8abc 3cd3 fcbc 3a0d 15bf 3f60 3fbe
000000f0: 4f29 ebbe 7493 813e 1a52 f13d ff2e 7f3e
00000100: 2e62 003f 9521 3bbe 06fb ea3e 6954 9cbd
00000110: 45c6 0a3b fd7c 58be eb1d debe 068b 93be
00000120: 29d6 253e c522 cd3e 46a0 5e3f b6b1 51bd
00000130: 72a4 dfbe 1ace 9d3e fbff c13f 9d81 db3e
00000140: b583 18be a67f 463c 6ce1 b83d 82be 11be
00000150: 6f49 3d3e 8ad8 fbbd 9da1 933f 87ce 0a3e
00000160: 5298 e8bd e4c4 8b3e 65e9 123f 29b3 1dbe
00000170: cdd5 913e 5223 4c3e e2f1 7c3e edea 843e
00000180: 5c63 6fbe 8f11 52be 2893 8ebe 7573 833e
00000190: 2e7d 39be 7913 423d 5659 a43d 7abb cb3d
000001a0: fafa 53be 489d cebe cbdb febc bb23 6bbe
000001b0: 3e6d b2bb 4889 09bc 9d66 a03f a232 303d
000001c0: d33c 003e 342e 5a3d 3fef 13bd 9bc2 97bd
000001d0: 1782 febe 755e b7be c02c 913d 268b d5be
000001e0: d544 b9be 0e8d 2c3e 11ba 853f eba7 aa3e
000001f0: be4f fcbe f628 44be 6f22 eabd bc1c e03e
00000200: 5356 2c3e c879 703d f47d c63d 0adc 4fbd
00000210: af40 0d3d fe7c 543d 05e7 6a3f a331 59be
00000220: 578f da38 561d 8c3d 67e0 593f 5f13 0f3f
00000230: fa16 263c 611f d83d 737f f5be 3eb4 403e
00000240: 9f58 253e 2eb8 cebe 205f 2bbf 77b7 e5bc
00000250: 7134 073f 7826 e33e 7493 213f 8f4c ca3e
00000260: f81f df3e 48e6 82bd 6285 f4be 8b32 03be
00000270: f653 0d3f 23fa a7bd 6ae8 95bf 0b71 ecbd
00000280: 6a09 473d 542c 3abe b828 9b3f 9c0c 7a3e
00000290: 52ba 8fbd 9abb 9bbe ad43 8fbe 2bc1 bdbe
000002a0: 8cf4 033f 8cdf 15be 15a3 423f b009 953e
000002b0: 8a9a 1cbf ed8c e13c e29b dbbe 4a32 863e
000002c0: 3ee8 973d 0ee9 e7bd 19a2 983f 6e7d 263e
000002d0: 566f 493e 4981 93be be50 543f 7503 94bc
000002e0: 78d0 34be e513 2d3d cffc 64bf 2b94 db3e
000002f0: c78f d83e 7fdb 25be 0420 0ebf db67 243e
00000300: b88c 4ebe 1e21 7fbe 9193 713d 3b51 0ebe
00000310: d9f7 883e 7b2b 293d 5243 09be f3ed 0c3e
00000320: e2da f5be bd81 023e 2430 8b3f 890a f73d
00000330: 7d0a 07be a52a 6f3e c490 7dbf fc89 013f
00000340: 1a52 63bd 74e7 2f3d 200b 8cbf 013c 2ebe
00000350: 41d9 ac3d 52c9 a9bd 361d 8dbf f63e a6be
00000360: a845 853e cdb8 0cbf 56c9 0a3d c508 d9be
00000370: 5152 f2be 8269 a3bc d03d c4be 378a 02be
00000380: a00e 0fbf 3091 cd3e 860d 023f 5061 e0bd
00000390: f74e 89be 06f9 d13e fb59 033e 43cd a8bb
000003a0: e810 b3be e21b af3e 9e31 33bf 20a3 be3c
000003b0: 91e4 a2be 65c9 9e3e 1dde 6ebe 44e6 57be
000003c0: 7fce da3d c514 ed3c 1c4c 6cbf 2bfb 24be
000003d0: 415d 153f 464d 933d c731 82be 4110 27be
000003e0: 9060 a0bd dd5d b13e 9702 953e 5a14 5d3e
000003f0: 829c f4be a307 7abe a149 0a3f 7414 26bd
0.023597846 0.00973598 -0.53601635 0.6553061 0.09012319 -0.49529326 -1.2323406 -0.11569127
0.5428723 -0.41590244 -0.1901826 -0.28877527 0.005736233 -0.041835845 -1.1576729 -0.22885142
0.15037072 -0.027298978 0.27996898 0.6347429 -0.0058286428 0.0011050098 -1.0588653 -0.038827606
0.0024167642 -0.09759785 -1.4053992 0.5005673 -0.38490304 -0.16178656 0.21897393 -0.21064053
-0.05717421 0.027407246 -0.5446364 0.41098568 0.4196473 -0.38698617 -0.82108885 0.06464186
-0.39687017 0.34900266 -0.31149957 0.43551254 -0.018608829 -0.23166972 -0.9752115 -0.17344245
0.28231993 -0.18412462 -0.878259 -0.0797052 -0.23942468 -0.045103308 -0.36152154 -0.114436686
-0.016886946 -0.030862443 -0.5822331 -0.18689059 -0.45929953 0.2530781 0.11783238 0.24920271
0.5014981 -0.1827453 0.4589464 -0.076332875 0.0021175307 -0.21141429 -0.433822 -0.28817004
0.16194977 0.4006559 0.8696331 -0.05119487 -0.4368015 0.30821306 1.5156244 0.42872325
-0.14893992 0.012115395 0.09027371 -0.14232829 0.18485044 -0.12297161 1.1533695 0.13555346
-0.11357178 0.27298653 0.5738738 -0.15400375 0.2848343 0.19935349 0.24701646 0.25960484
-0.23377746 -0.2051451 -0.27846646 0.25674024 -0.18114159 0.04738185 0.08024852 0.09947868
-0.20701209 -0.4035437 -0.031110665 -0.22962849 -0.0054451516 -0.008394547 1.2531315 0.043017037
0.12523203 0.05326672 -0.036116835 -0.07410165 -0.49708626 -0.35814252 0.070886135 -0.41707724
-0.36185327 0.16850683 1.0447408 0.33331236 -0.49279588 -0.1915625 -0.11432349 0.43771923
0.16829805 0.05870989 0.096919924 -0.050746955 0.034485515 0.051877014 0.9175876 -0.21210341
0.00010421749 0.06841533 0.85108036 0.5588893 0.010137314 0.1055286 -0.479488 0.18818757
0.16147088 -0.40374893 -0.66942024 -0.028041584 0.52814394 0.44365287 0.6311562 0.39511535
0.43579078 -0.06391579 -0.47758013 -0.1281225 0.5520624 -0.08202007 -1.1711552 -0.11544999
0.048592962 -0.18180972 1.2121801 0.24418873 -0.0701796 -0.30416566 -0.2798132 -0.37061438
0.51545024 -0.14636058 0.76030093 0.29108953 -0.6117331 0.027533019 -0.42892367 0.26210243
0.074173436 -0.113237485 1.1924468 0.16258785 0.19671378 -0.28809574 0.829357 -0.018068055
-0.1765765 0.0422553 -0.89448255 0.4288648 0.42297193 -0.16197012 -0.555176 0.16055243
-0.20170867 -0.24914977 0.05897862 -0.13898174 0.26751593 0.04130123 -0.13404587 0.13762645
-0.48018557 0.12744804 1.0874066 0.12062556 -0.13187595 0.23356111 -0.9904902 0.5060117
-0.05549822 0.04294534 -1.0940895 -0.17015077 0.084398754 -0.08290352 -1.102454 -0.3246991
0.26029706 -0.54969484 0.033883415 -0.42389503 -0.47328427 -0.019947771 -0.3832841 -0.12748037
-0.5588169 0.40149832 0.50801885 -0.10956061 -0.26818058 0.41010302 0.12827294 -0.005151422
-0.34973836 0.3420096 -0.69997585 0.023271143 -0.31815007 0.31013027 -0.23326917 -0.21083933
0.10683917 0.028940568 -0.92303634 -0.16111438 0.5834542 0.07192473 -0.25428602 -0.16314794
-0.07830918 0.34641925 0.29103538 0.21589795 -0.47775656 -0.24416976 0.540186 -0.04054685

fc1.bias f4 [400]
00000000: aacf df3b 377d e9bc 914e 2fbe 8c35 d73e
00000010: 841b acbe 8eb7 3abe 1797 7b3e 01a0 213e
00000020: 1216 28bd fdd5 573e 303a 733e 272c d83e
00000030: a1c4 983e 51e9 eebd bd8f aa3e 2aba b1be
00000040: afb7 11bf 2657 603e 6f43 123e 4796 abbe
00000050: 1a01 80bc 198d 2fbe 7d46 adbd 489e 183e
00000060: 0b70 93bd 6590 a1be 70be 50be 0409 64be
00000070: e08c cc3d 1f93 4fbe a480 99be e560 87be
00000080: d390 fc3e 7810 4b3e 8036 29bf 0755 7e3e
00000090: 057a f03e bfe8 66be 5af6 21bf 74f0 c5be
000000a0: 358c 12bf 2be7 c73e 3112 c4be 65e3 ffbd
000000b0: 2562 e2be dc59 e23e cfef 803e 495e 423e
000000c0: f648 d7be 76d8 393e afe7 1ebe e07c 523e
000000d0: 168f d43e 6553 1c3f 427e c23e d519 20bf
000000e0: 264e babe c305 bcbe f52a e03e 17e9 a03e
000000f0: 7046 953e 0c70 d1be c5f8 c2bd 68da a1bd
00000100: ffca 9ebe d15e 95be 7107 073f aa6f f33e
00000110: 783d 343c 8223 d73e a061 a43e 99fe ecbb
00000120: d5ed b73e e6bd 4abe 7180 77be 179a b13e
00000130: eb3c bf3e 5249 9cbe 8ddd 32bd 1746 b43c
00000140: c651 dc3e 5a8e d1be c7bd 4dbd d25d 98be
00000150: 93f4 8abe 08dc 9cbd e554 5ebe 3d12 05bd
00000160: 3878 95be fac9 f33d 3146 83be b3ee 5a3e
00000170: b71c fe3e f303 9f3e 6285 083f 4c01 a9be
00000180: e0e8 ec3e 2c9e bbbe a01b 823e c838 40be
00000190: 6f82 59bd 5a31 c8be 9632 043e ae2a d13c
000001a0: 497c 3abf 4cd0 823e 4ef7 91be cba3 b1be
000001b0: 9322 033f e9b4 bdbe cc1c b03e 769a f5bd
000001c0: eb7f 153f 1d20 df3d a68e fd3e 8159 053f
000001d0: 0a46 203e d443 88be 76fe a2be 857d 943e
000001e0: cce3 bf3b ac2f a2bd 2d7a 93be 706b bf3d
000001f0: 5d45 eabd c14f 8e3e 1b8b 803e c397 e1be
00000200: 0072 d13a 2f64 66be 8476 23be d328 cebe
00000210: 764a 183e 7499 993e c77a e03e b296 393e
00000220: d6ed 563e 3f47 2fbe 6ef7 9b3e 6f36 58be
00000230: 0bd0 dfbe 892c 003e 88ca dbbe 5ee6 6ebe
00000240: 3229 e4be e172 163e c6b4 7abe 103f 00be
00000250: d2a5 7cbd c728 c83e 6300 50bf 1431 0abf
00000260: cb47 bc3e 959b f7be 0014 c8bd 5a03 b43e
00000270: 0091 80bc bee4 da3e e8ea 793e a270 f33d
00000280: fd29 d1bd 2160 d03e a48a 8abe 1a45 efbb
00000290: 99de c03e 12fe 703d 1832 bbbd 69b5 8dbe
000002a0: adbb 3bbe 21af 8c3d 0dfd f8be 31e5 02bf
000002b0: 83f4 043f 0fab b6be 8051 723e 5dbf e93e
000002c0: d1ed 013e 0131 493e cd8e e63e 6d06 eabe
000002d0: 1a79 f23e 60d6 8e3e ab7c 203f 6540 303e
000002e0: be0f 133f 978b a53e ae98 c43e 4005 613e
000002f0: 8dea 823e 550b 43be 1e75 31be ffac d3be
00000300: 47ea d23e f97d e83e 87b5 dc3e 1598 dfbd
00000310: 571e 9bbe 6215 9c3e 5743 89be 9231 c1be
00000320: c07c c93e 955b 12bf 8427 7b3d 1739 32bf
00000330: 7a1f 953e 3ff8 dabe 1a61 613e bc27 743e
00000340: 6804 6e3e 2fbc f2be e537 75be 6e4b 0a3f
00000350: e468 fe3e 2d22 db3e 2f36 c2be bd67 b63d
00000360: 344f bd3e bbdd 6a3e 6815 01bf 56b6 02bf
00000370: 5d06 ad3e f936 ed3c f162 fd3e 2f96 d7be
00000380: 4e03 913e eca6 403e 5912 7cbd bf6f 33be
00000390: bbda c8be b5eb a33e aced 5bbe 0298 2dbf
000003a0: 0202 38bf 0f1c 17be ebf8 91be 742c b73d
000003b0: 17e5 d6be 0c3d d7be c33b 89be 40f7 453e
000003c0: 3408 a53c 3052 463c 7323 7b3e 2748 5bbd
000003d0: 6357 18be 905e fdbe ac3d 26be 659b 923e
000003e0: 9f49 eabe a2eb e93e baba 443e 1034 d4be
000003f0: da9b 3d3e 09ff 15be 3aaa 21bf 1a32 12bf
0.0068301754 -0.02850209 -0.17119814 0.4203304 -0.33614743 -0.18234083 0.24569355 0.15783693
-0.041036673 0.21077724 0.23752666 0.42221186 0.29837516 -0.11665595 0.3331279 -0.34712344
-0.56920904 0.21908244 0.14283536 -0.3351309 -0.015625525 -0.17143668 -0.0846071 0.1490413
-0.07199105 -0.31555477 -0.20385146 -0.22269064 0.09987807 -0.20270966 -0.29980958 -0.26441112
0.49329242 0.19830501 -0.66098785 0.24837123 0.46968094 -0.22549723 -0.6326653 -0.38660014
-0.5724519 0.39043555 -0.3829513 -0.12494544 -0.44215503 0.44209182 0.2518296 0.1898128
-0.42047852 0.1814898 -0.15518068 0.20555449 0.41515416 0.6106475 0.37986952 -0.62539417
-0.36387748 -0.36723146 0.43782774 0.31427833 0.29155302 -0.40905797 -0.09520105 -0.07902986
-0.3101425 -0.29173902 0.5274573 0.4754613 0.011000983 0.42019278 0.32105732 -0.007232499
0.3592364 -0.19799003 -0.2417009 0.34687874 0.37351164 -0.3052469 -0.04366832 0.022006078
0.43031138 -0.40928918 -0.050229814 -0.2975908 -0.2713972 -0.07659155 -0.21712072 -0.032488097
-0.29193282 0.11903758 -0.2563949 0.21380119 0.49631283 0.310577 0.53328526 -0.33008802
0.4627142 -0.36644113 0.254117 -0.1877166 -0.053102907 -0.39100152 0.12909922 0.025533047
-0.72845894 0.25549543 -0.2850899 -0.34695277 0.5122463 -0.37052086 0.3439697 -0.11992352
0.5839831 0.10894797 0.49522895 0.520897 0.15651718 -0.2661425 -0.31834763 0.29002014
0.005856013 -0.07919249 -0.2880415 0.09346664 -0.11439011 0.27795222 0.2510613 -0.44061098
0.0015979409 -0.22499155 -0.15963179 -0.4026552 0.14872155 0.29999888 0.43843672 0.18123892
0.20989165 -0.17117022 0.3046221 -0.21114515 -0.43713412 0.12516989 -0.42927957 -0.23330066
-0.4456268 0.1469226 -0.24483022 -0.12524056 -0.061681576 0.3909361 -0.8125059 -0.5398114
0.36773524 -0.48360887 -0.0976944 0.35158807 -0.015694141 0.4275264 0.24406016 0.118867174
-0.10213087 0.4069834 -0.270589 -0.0073019387 0.3766983 0.05883605 -0.09140414 -0.27677467
-0.18333311 0.06869341 -0.48630562 -0.5113097 0.51935595 -0.35677382 0.23663902 0.4565381
0.12688376 0.196476 0.45030823 -0.45708027 0.47358018 0.2789793 0.6269023 0.17212065
0.57445896 0.3233306 0.38397735 0.21974659 0.25569573 -0.19047292 -0.17329833 -0.41342923
0.41194364 0.4540861 0.43107244 -0.10917679 -0.30296585 0.30485064 -0.2680919 -0.37733132
0.3935299 -0.57170993 0.061316982 -0.6961836 0.29125577 -0.42767522 0.22009698 0.23843282
0.23243868 -0.47409198 -0.23947103 0.54021347 0.496894 0.42799512 -0.37931964 0.08906505
0.3697449 0.22936146 -0.5042329 -0.5105947 0.33793917 0.028956877 0.4948955 -0.42106768
0.28322834 0.18813676 -0.061540935 -0.17523097 -0.39229378 0.32015768 -0.21477383 -0.6781007
-0.71878064 -0.14756797 -0.28510222 0.08944026 -0.41971657 -0.42038763 -0.26803407 0.193326
0.020145513 0.012104556 0.24525242 -0.053535607 -0.14877085 -0.49486208 -0.16234463 0.28634182
-0.45759293 0.45687586 0.19211856 -0.4144597 0.18516484 -0.1464807 -0.6315037 -0.571077

fc2.weight f4 [400, 400]
00000000: 2119 5cbb 9dba 073d bfb9 b1bc 74d1 253c
00000010: 9f8f 11bd da01 f03c e063 df3c 9c6d 4cbc
00000020: 7353 bd3c c45f 61ba e0f1 5d3b 1082 bdbb
00000030: ee18 b0bc 30ad 61bd 5f40 38bd 8505 0dbd
00000040: 85dc 0b3d 5c93 13bd 5133 4cbc 38f7 6bbc
00000050: 3bac c6bc b65f 1bbd eb04 b03c a1ff d1bc
00000060: 063a ed3c 38f6 2b3c 9a16 893c eb3c 943c
00000070: d8e5 2f3d 02fd 74bc 48a2 e13b adbe d53c
00000080: a040 393c fab6 113d 25a9 aabc 154c 0dbd
00000090: 7d8b 5bbd f25c 26bd 1138 243c 3fbe 7a3b
000000a0: 78cc e03c 42e4 353c 1df9 12bd 518a 07bd
000000b0: a0ed 803c 8c2f a839 2968 28bd 073d 933c
000000c0: fce7 10bd 77bd 133d fdb6 33bd 8186 ad3c
000000d0: 7c58 fcbc f305 9dbc 6df7 20bd b70f d03c
000000e0: 21c7 af3c 1862 d6bc ff6a 05bd f419 5ebd
000000f0: 05f7 90bc 155f 49bc f5a6 0cbd 21a2 adbc
00000100: 08e0 8e3c ad6e 0a3d 4139 2cbd 4aed 19bc
00000110: c874 033d 2b32 61bd e678 12bd 8774 d63c
00000120: 806c 77bc 2e10 26bd 09af 1dbd 4f51 49bd
00000130: 391e 3bbd 49d4 8039 b739 d43c 29ba 37bd
00000140: d923 233d 3097 9a3c b069 c2bc 73f9 57bc
00000150: 3bf3 b93a 48ff 8dbc efb7 b03c 0028 80bc
00000160: 98e9 34bc fd25 acbb 00d4 04ba c8b6 94ba
00000170: 2040 ab3b c10e 3a3d fee7 0cbc e422 d9bc
00000180: 0a18 25bd 2c4d 183d 6d08 a9bb 45a8 0e3d
00000190: f877 39bd b060 3fbb 2782 f73b becd ebbb
000001a0: 0a22 2a3d 2d5a 6bbc bde4 363d 42ac e8bc
000001b0: 3a4c 86bc 5435 0f3d 9d5b 233d c387 813c
000001c0: f10a 1cbd 7c86 963c c0c9 1a3d 4999 1c3d
000001d0: ab29 10bd c03d c9bc 641d 8ebc 3eff 243a
000001e0: 7706 95bc c7ac 18bc bba7 c03c 56b6 1b3d
000001f0: 9bac 2a3d ec73 153d fe2b febc 53e2 d43c
00000200: ee83 e2ba 5e3d 4fbd dd5a f9bc c198 393d
00000210: 8c5f d9bb f314 4bbd aad1 b3ba f260 023d
00000220: 2387 35bd a4c4 30bc e5db 153c 906c 47bd
00000230: ff98 133d 596e 0d3c b5dc c4bc 8c6c f83c
00000240: 1e0d 9a3c e9e9 aabc f012 c1bc b38e 183d
00000250: 08ba 333d 328f 66bd 502d da3c 4d33 3cbd
00000260: 5230 f3bb 21b2 1e3d 7345 0fbd 5934 52bc
00000270: 26cc 193d aa46 2d3d 91ac 40ba 2879 d63b
00000280: 2811 aabc 1f22 de3c c88f 19bd e3f0 2c3d
00000290: a893 003c e75a 403d 9239 323d 96c2 42bc
000002a0: dbf7 0fbd 37a6 383d 20f3 66bc 769a 2c3c
000002b0: db92 84bc 9cd4 3c3d 1400 a13c 1077 56bd
000002c0: ec8d 323d 1f5a 723c d25f ccbc 40c9 08bc
000002d0: 616d 35bd 860d 4dbd b91e d0bc ae1e ffbc
000002e0: a6bc 21bc da09 53bd a26b 033d 17ad 00bd
000002f0: f428 5bbc 97a4 b63c 9ee3 073d 98cf 87bb
00000300: 6e52 d33c 88a4 c6bc f585 13bd c367 0abd
00000310: 7c44 d0ba 120c 5f3c 1dba 493b 6265 ba3c
00000320: cbb6 5abd 9c88 293c 5d8e 9aba debc 7fbb
00000330: 07ea 86bb 5d0d a5bc 12b1 1bbd 137f 703c
00000340: 05d5 8a3c 9718 f83c 650e 02bd 11b1 ddbc
00000350: c2d4 093c 9ef2 883b 06f7 db3c 7b0f 283d
00000360: 46b3 23bc c635 48bd aded bd3a d39b dabc
00000370: e860 cfbb a73f e43c 6c54 1c3c 16c0 aa3c
00000380: 78e3 80bb bf0c 2fbd d6dc 50bd 4ada 2fbc
00000390: 4d26 b9bb 046a 12bd 1965 45bd 2176 f5bc
000003a0: 6fec 30bd f948 c7bc 4fbd 41bd f0f6 8fbc
000003b0: fa4f d93c 02d1 b9bc af8b 43bd a6ac 2dbd
000003c0: fece ed3b dadc fabc 09c5 353c 41c8 42bd
000003d0: 6ae3 e73c 730b babc 3387 46bc 2398 f3bc
000003e0: 78f3 40bd 08a2 013d f0e5 0dbc 1d60 443c
000003f0: 055b 0bbd 8b1b c53c f0b9 4e3d 7b59 ad3c
-0.0033584314 0.033136953 -0.021695016 0.010120738 -0.03553736 0.029297758 0.027269304 -0.012477305
0.02311108 -0.0008597339 0.0033866093 -0.005783327 -0.021496262 -0.055096805 -0.044983264 -0.034429092
0.03414585 -0.036029205 -0.012463407 -0.014402203 -0.024252048 -0.037933074 0.02148672 -0.025634589
0.028958332 0.010495715 0.01673441 0.018095454 0.042943805 -0.0149529 0.0068858005 0.026091898
0.011306912 0.03557489 -0.020832608 -0.034496386 -0.053599823 -0.040615983 0.010023133 0.0038260368
0.027441248 0.011101784 -0.035882104 -0.033090893 0.015738308 0.00032078882 -0.04111496 0.017973436
-0.035377488 0.03606936 -0.043875683 0.0211823 -0.030803911 -0.019167876 -0.039298464 0.025398118
0.021457257 -0.026169822 -0.032572743 -0.05422397 -0.017695913 -0.012290736 -0.03433891 -0.021195473
0.01744081 0.033796955 -0.04204679 -0.009394953 0.032093793 -0.054979485 -0.03575983 0.026178611
-0.015101552 -0.040542774 -0.038497005 -0.049149808 -0.04568312 0.00024572227 0.025906427 -0.04485527
0.03982911 0.01887092 -0.023732036 -0.013182032 0.0014186868 -0.017333642 0.021572081 -0.015644073
-0.011042021 -0.005253552 -0.0005066991 -0.0011345977 0.00522615 0.045424227 -0.008600233 -0.026505895
-0.04030613 0.03718297 -0.005158475 0.034828443 -0.045280427 -0.0029201917 0.007553357 -0.0071961572
0.04153637 -0.014364761 0.044651736 -0.028402451 -0.01639377 0.034962967 0.03988229 0.015811807
-0.038096372 0.018374674 0.03779006 0.03823212 -0.035195988 -0.024565578 -0.017347999 0.00062941376
-0.01819156 -0.009318537 0.02351748 0.038015686 0.041668516 0.036487505 -0.031026836 0.025986826
-0.001728175 -0.050595634 -0.030438835 0.045311693 -0.0066337045 -0.049580526 -0.0013719101 0.031830736
-0.04431833 -0.01078907 0.009146665 -0.048687518 0.03603458 0.008632266 -0.024031023 0.030325197
0.018805083 -0.02086349 -0.0235686 0.037245464 0.043878585 -0.056288905 0.026632935 -0.04594736
-0.0074215317 0.038744096 -0.03497834 -0.0128298635 0.037548207 0.04230372 -0.0007349933 0.0065452047
-0.020760134 0.02711588 -0.037490636 0.042221915 0.007847704 0.04696169 0.043511935 -0.011887213
-0.035148483 0.04508039 -0.014096051 0.010534873 -0.016183307 0.046101198 0.019653358 -0.05235964
0.04359238 0.014791994 -0.024948034 -0.008348763 -0.044293765 -0.050061725 -0.025405275 -0.031142559
-0.009871637 -0.051523067 0.03208507 -0.03141507 -0.013376463 0.02229528 0.033176057 -0.00414462
0.025796141 -0.024248376 -0.036016423 -0.03379036 -0.001588955 0.013613718 0.0030781098 0.022753421
-0.05339698 0.010347512 -0.0011791695 -0.0039022486 -0.0041172537 -0.020147974 -0.038010664 0.014678734
0.016947279 0.030285163 -0.03175201 -0.02706197 0.008412542 0.004179313 0.026851188 0.04103039
-0.009991473 -0.048879407 0.0014490389 -0.02668563 -0.006328691 0.027862383 0.009541612 0.020843547
-0.0039333664 -0.042736765 -0.050991856 -0.0107331965 -0.0056503178 -0.035745636 -0.048192117 -0.029963555
-0.04319423 -0.024326788 -0.04729968 -0.017573804 0.026527394 -0.02268267 -0.047740635 -0.04240098
0.0072573414 -0.030622888 0.01109434 -0.04755426 0.028306682 -0.022710538 -0.012117195 -0.02973563
-0.04710719 0.031648666 -0.008660778 0.011985806 -0.03402235 0.024060985 0.050470293 0.021160832

fc2.bias f4 [400]
00000000: 60e1 d63c 4c4b 053c a6a7 56bd 1967 003d
00000010: 70ef 003d 7bb5 91bc f477 0fbc 73c8 f43c
00000020: 782e 963d 2d74 733d 41dc ad3c 302a 47bc
00000030: 794a 0dbd 665c ed3c f9ff 51bd 32b0 563d
00000040: e883 873d 205c 48bd 7e31 43bd 0d10 12bd
00000050: f864 6c3d 83e3 023d 66d1 e13c 6ac0 db3d
00000060: 97a7 52bd 24c3 41bd b699 a23d ad2b 173d
00000070: 0319 bebd d948 c1bd 7877 2d3d 03ca 903c
00000080: a0b8 203d 31ee 553c b459 ab3d 99da bc3d
00000090: 11f2 4dbc 3e97 26bd 65a8 3b3d b6a2 0abd
000000a0: cf68 35bd 5bd3 843c ca22 623d 1abf 1c3d
000000b0: 8dc0 5abd 27eb 9ebb 4817 243d 1113 c53c
000000c0: a983 b33d 658d ab3c 428d ea3c ec5d 43bc
000000d0: 1f3b b33d 6b2b 293b 7a1c 0ebd 53ae b9bc
000000e0: 5788 1cbd f067 353c 2b0b db3d 3492 e83c
000000f0: 3674 39bd c250 92bb eb9b 1fbc 576f 5f3d
00000100: 3c8c d73d 6618 b43c 9968 c93c d8cc d13b
00000110: 72b4 53bd b415 98ba a867 b9bb bf53 90bc
00000120: 2f47 75bc ecda bc3d ca5e d2bc afdf fabc
00000130: d8b7 27bc 6b50 9e3d 8979 893d f880 4b3d
00000140: ebd6 5d3d fbfe 123d 2ef6 21bd 63a1 02bd
00000150: 0131 613d 52cf a03d 7d6c 7c3b a154 563d
00000160: 82a9 47bd b5f9 adbc ee25 27bd afd2 af3a
00000170: 6adb d33d 1ee1 903d 36d6 2ebd 82f8 883d
00000180: 8820 a43d 333a 17bd ea1a 0d3d 7255 bd3c
00000190: d264 003d 6330 c4bc 4e45 0f3d 804f a33c
000001a0: 293e 33bc 3536 343d c71e ba3c 9364 b8bc
000001b0: 50fb 5ebc 08cd 3dbd 512e 01ba 80f8 33bc
000001c0: 1cdc 3a3d 087d 12bd 2770 b83d 905e 463d
000001d0: e8b3 4c3d 2792 843d 1485 6d3d 0ed6 c93c
000001e0: 5312 073d 28c1 bc3d d7de 5dbd 9c50 71bd
000001f0: c45b b73d c305 4bbd fe10 0cbd d39f e7bc
00000200: da13 81bd 99f4 cc3c 73d1 7b3d 7634 df3b
00000210: ea74 2a3d e0ea 3bbd 1640 e93c 54ad ac3d
00000220: aa3b 28bc 7b57 4c3d bc74 be3b 5b2e 103c
00000230: 5aaf 233d 6e27 1dbd 70b4 5e3c bd35 c63c
00000240: f3c7 acbc 6b0d 863d 7b4e b0bc 33c4 b13c
00000250: 6eb2 3c3d 0c40 673c bd0d 263d c4d7 4f3d
00000260: 75c1 193d 271b a43d 401b 38bd da7e 0bbc
00000270: a936 4a3d 313b 433c c095 833d 7904 553d
00000280: 8cc2 cfbb b7a8 993d 1f49 07bd cf3e 83bc
00000290: 28e7 8c3d f8db ba3d 0b57 c33d c3c5 24bd
000002a0: 9d76 3b3d 1552 2a3d d69d 1abc a11a 0e3d
000002b0: 2bf5 6e3d e01d 11bb bd9b 29bc ef67 283d
000002c0: 0b33 7f3c 1891 ca3c 7d46 b93c b280 e839
000002d0: 97c9 0a3d 7a54 db3b d1f0 113d f96f 213d
000002e0: 410e ab3c 1e7f 85bd 951b e0bc 56c6 073d
000002f0: 9dd0 bd3c 9f94 afbc 8d6c 2cbd ea06 973d
00000300: 6bb2 243d cc05 8e3b 19be 5f3c bfba 2bbd
00000310: b8ed 24bd a04b a2ba 90a4 9bbc a524 5e3c
00000320: 8c49 563d f89a 47bd 6077 a2ba de9a 0ebd
00000330: adf5 823d 99cf 893d 9b54 313d 071b 263d
00000340: bded 3c3d 4d6b c43d f488 9bbb e22e 1f3d
00000350: 0f94 6d3d 4db4 8e3d e0ea 833c 49f8 883d
00000360: 4d21 9b3d e804 853d a656 f53a aa6f 47bd
00000370: 90dc 8b3d 79d5 593d 3fe0 b93c 0846 20bb
00000380: 191b 883c 5dd8 783c e97f dcbc e0c4 dc3c
00000390: 481c 4c3d 726c 143d 7725 a23d 112e 03bd
000003a0: 5b68 093d d017 533d b095 273c c4bc cd3c
000003b0: 3769 56bd 80e8 863d 151f 353c 9324 8bbc
000003c0: f7d3 1d3d 74fb 113d 9b35 70bc 78c2 05bd
000003d0: d2db 503c d163 cf3c 76f8 ea3c 3bdd db3d
000003e0: 6b08 54bd a795 b33c af24 a83d e63c c8bb
000003f0: e082 59bd 6bab 18bd a4c0 033d 43f3 2a3d
0.026230514 0.008135628 -0.052405976 0.03134832 0.031478345 -0.017786732 -0.008756626 0.029880738
0.07333082 0.059436966 0.02122319 -0.012156054 -0.03449485 0.028974723 -0.051269505 0.052414127
0.06616956 -0.048915982 -0.04765462 -0.03565984 0.05771348 0.031955253 0.02756567 0.107300594
-0.051429357 -0.04730524 0.07939474 0.036906887 -0.09282114 -0.09437723 0.042350262 0.017674452
0.039238572 0.013057278 0.08366719 0.09221382 -0.01256992 -0.04067158 0.04581489 -0.03384658
-0.044289406 0.016214063 0.05520896 0.038268186 -0.053406287 -0.0048498097 0.040061265 0.024056943
0.087653466 0.020941446 0.02863181 -0.011924248 0.08751511 0.0025813233 -0.034695126 -0.022666132
-0.03821596 0.011072144 0.106954895 0.028390028 -0.045276843 -0.0044651935 -0.009741764 0.05454954
0.105247945 0.02198429 0.024586009 0.006402593 -0.051685758 -0.0011603148 -0.0056581087 -0.017618058
-0.014970585 0.092214435 -0.025679965 -0.030624239 -0.010236703 0.07730182 0.06712634 0.04968354
0.05416004 0.0358877 -0.039541416 -0.03189219 0.054978374 0.07852043 0.0038516812 0.052326802
-0.04874564 -0.021237234 -0.040807657 0.0013414229 0.10344584 0.07074188 -0.042684756 0.06688024
0.08014017 -0.036920737 0.034449495 0.023112033 0.03134615 -0.023948854 0.034978203 0.01993537
-0.010940113 0.04399701 0.022719754 -0.022508895 -0.013609722 -0.04633811 -0.0004927861 -0.01098454
0.04562007 -0.03576377 0.09005766 0.048430026 0.04997626 0.06473189 0.05798824 0.024638202
0.03297646 0.09216529 -0.054167595 -0.058914766 0.0895305 -0.04956604 -0.034195893 -0.028274452
-0.063026145 0.025018977 0.061479043 0.0068116738 0.041615404 -0.04587829 0.028472941 0.08431497
-0.010268131 0.049888115 0.0058122557 0.0088001145 0.03996215 -0.03836768 0.013592824 0.024195546
-0.021091437 0.06545528 -0.021521797 0.0217 0.0460686 0.014114391 0.040540446 0.05074288
0.03753801 0.080129914 -0.044947863 -0.0085141305 0.049368534 0.011915968 0.06425047 0.05200622
-0.0063403305 0.07502883 -0.033028718 -0.01602116 0.06880027 0.09123987 0.095380865 -0.040227663
0.045767415 0.041582186 -0.009437045 0.034693364 0.05833928 -0.002214305 -0.010352072 0.041114744
0.015576134 0.02472739 0.02261662 0.00044346374 0.033883657 0.00669342 0.03563005 0.039413426
0.02088082 -0.06518386 -0.027356902 0.033148132 0.023170764 -0.021433173 -0.04209571 0.07374366
0.040209215 0.004334187 0.013656163 -0.04192614 -0.04026577 -0.0012382157 -0.018999368 0.013558541
0.052316234 -0.048731774 -0.0012395196 -0.03481566 0.06394515 0.06729049 0.043293577 0.04055312
0.046125162 0.095907785 -0.0047465507 0.03886307 0.058002528 0.069679834 0.016103208 0.06687982
0.07574711 0.064950764 0.001871784 -0.048690476 0.06829178 0.0531821 0.022689937 -0.0024455804
0.016614484 0.015188304 -0.026916461 0.026949346 0.04983166 0.036236234 0.07917302 -0.032026354
0.033546787 0.05153638 0.010228559 0.025114425 -0.052346434 0.065873146 0.011054774 -0.016985213
0.038532224 0.035640195 -0.014661218 -0.032656163 0.012747722 0.02531615 0.028682929 0.10735556
-0.05176584 0.021921946 0.08210122 -0.0061107753 -0.053103328 -0.037272852 0.03216614 0.0417359

fc3.weight f4 [2, 400]
00000000: 2390 413c 1513 18be b2f8 623a 4483 043c
00000010: c1ce e33c 4d38 82bf be76 03bd 50db 513e
00000020: 9757 223e 95b1 4d3d 19e9 d43b 3e51 aa3d
00000030: 16d3 09bd 9aeb ee3c 602e 54bc ef37 2a3f
00000040: 0609 f53b 3728 30bf d643 11be 521a fe3d
00000050: 31be 0e3d 02a5 20bd f861 23be e76f 5b3e
00000060: e069 2a3b 704b ffbc 6458 c3be 39a9 e6bb
00000070: 52e8 64bd a93a 2abf e1c2 afba 11ca 593e
00000080: 1e26 243e 2444 a93c 52d4 883c 8413 833d
00000090: 5b4c 653c d40a 89bc 3ad7 1b3d dae7 b9bc
000000a0: e036 d73e 7c3b df3c 2de1 4d3c a368 3b3f
000000b0: ac70 a43c 6b73 b83d cf6b 493f f3a5 4cbd
000000c0: 9a2a 3b3d 61d3 57bf 5824 81bb 3a7d edbc
000000d0: bfa9 883d 4773 8bbf 97f4 efbc 0c17 35bf
000000e0: 9be5 053b 4924 773d ecae 303e 212f 35bd
000000f0: 3223 0dbd f089 063d 81f5 f5bc d4c6 2a3c
00000100: 1f93 293e a3f4 d23b 58b9 3bbd 9126 bb3c
00000110: 688f d0bc ce07 20bf 6d02 443e 6699 b2be
00000120: 6098 09be be88 223e f1ce 393d c8a3 3dbd
00000130: 5530 cd3e 8913 113e b769 433d f98c 373e
00000140: f913 3c3d a910 343d 1608 e23a 4864 a93d
00000150: 76c6 e33c f5ca 10bd a0f6 5f3d 33cf cd3c
00000160: c60d 8d3c be23 523f 9530 87bc fe65 d13c
00000170: c199 283d 165b c1bd 7335 8bbf 7cc9 443e
00000180: 38db 173e d009 c93d ee41 58bf 248d 463e
00000190: 10f9 ea3d 1431 5a3c 914f 093c 40d5 7ebd
000001a0: 4571 453d 51c2 f33d 68e7 c33c 88ae 1cbe
000001b0: 9253 1cbd d922 8d3c 9bf2 36bd c58a 023d
000001c0: 4cfa 73bf 3f29 8abe 2c8c 13bd cbed 4a3e
000001d0: d9fd 2a3e 7050 3a3e 38f3 143d 7dd7 473e
000001e0: dba3 423d a07d 223e 3f3f 82bf 972c 85bf
000001f0: d923 3b3e 1a0c 963c ba5f d93c 1936 363d
00000200: 0227 4d3f 5cb7 07bb 14fb bebe 96d8 11bd
00000210: 1c59 003d ccf3 573a 8c22 cf3d 92b7 683e
00000220: 31e7 093d d130 343d adf2 343d c382 313e
00000230: 7157 0b3d d42f 8fbc 3658 dfbc de69 a53d
00000240: 6c8a 5cbe bce5 b33d 5c24 1cbd 6629 1f3c
00000250: 18b8 103e 2593 fc3c 3487 c0bb 3469 d03c
00000260: e0e4 afbc c901 6b3e 4783 1fbd 91b5 363d
00000270: 5a88 873c a1be 8bbf 015e ad3d ffde ae3d
00000280: a2bb edbf c419 473d 5644 d93c bbcf 2d3d
00000290: ef56 153e 496c 07bd baf0 233e 7f0f c4be
000002a0: 87a4 bfbc 4300 d23b 48fb 493c 5d45 3d3e
000002b0: 724d c63c eda0 44bf 939d d03e bd1d 9abb
000002c0: 7181 0a3d 957b ef3d b72d 153f 6f94 c83c
000002d0: 00df c1bc 643b b43c 4af6 1ebe 1e55 433e
000002e0: 6d8a 6fbf 6816 b03c 3f77 5c3e 40b6 89bf
000002f0: ee56 c63c 774c 943d f369 c53e 2b3e 91bd
00000300: 36c1 f3bc 5c24 d33c bcee cbbd 7973 2fbf
00000310: ada6 d33b 72d9 f33c b0fd 573f 39f6 4c3e
00000320: 2156 6c3e 6b56 2fbc 0226 3ebd 610f 2a3d
00000330: b821 973d 5e67 343e d5b7 df3c 8b7e 243c
00000340: 8a86 13bd ff33 593d 3afa 3d3c cd8b d0bc
00000350: acb4 2fbb dc7a 2c3e 7fbf 03bd 5cab 67be
00000360: 53a9 2e3e 5f45 433e f885 63bc bdf2 39bf
00000370: 7e25 0d3d 84a7 333d 6db5 07bb 8f1f 9fbe
00000380: ab4e 9fbf 5811 173d 2194 193f e368 55bd
00000390: a106 3c3e 289d c03d 8575 063b 0a73 d03b
000003a0: 1426 73bc 775d 1e3d b4e5 01bc 8169 62bf
000003b0: dae5 20be 9968 e43d b9d7 25bd c428 ea3a
000003c0: 2557 133f 5939 41be b922 e5bc 74cb b73b
000003d0: 8822 323f b567 e73e f66f 0a3e 55e3 203d
000003e0: 6c2f eebf f72b b9bf f353 763c c30d 363f
000003f0: cdd2 2dbe 0e16 1dbd fee3 d23e b128 90bf
0.01181415 -0.14851029 0.00086582743 0.008087937 0.027808549 -1.0173432 -0.032095663 0.20493817
0.15853725 0.050218184 0.006497514 0.08316277 -0.033648573 0.029165078 -0.01295051 0.664916
0.0074778823 -0.68811363 -0.14186034 0.12407364 0.03484935 -0.039219864 -0.15955341 0.21429406
0.0026003048 -0.031163901 -0.38153374 -0.007039216 -0.05588562 -0.6649576 -0.0013409519 0.21268488
0.16030166 0.020662375 0.016702805 0.06400207 0.013995255 -0.016728796 0.038047053 -0.022693563
0.42034054 0.027250044 0.012565893 0.7320654 0.020073257 0.09006389 0.7868013 -0.04996295
0.045694925 -0.84306914 -0.0039411 -0.028990377 0.066730015 -1.0894555 -0.029291434 -0.7073829
0.0020431045 0.06033734 0.17254227 -0.0442344 -0.034457393 0.03284639 -0.030024292 0.010423381
0.16560028 0.0064378544 -0.045831054 0.022845538 -0.025459006 -0.6251191 0.1914155 -0.3488266
-0.13437033 0.15872476 0.04536337 -0.046298772 0.40075937 0.14167608 0.04770824 0.1792487
0.045917485 0.0439612 0.0017244841 0.0827108 0.027804594 -0.035349805 0.05467856 0.025123214
0.017218482 0.8208579 -0.016502658 0.025561329 0.041162256 -0.094412014 -1.0875686 0.19217485
0.14829719 0.09816325 -0.844756 0.19389778 0.11473286 0.013317365 0.0083807865 -0.06221509
0.048203725 0.11902297 0.023914054 -0.15300953 -0.038165636 0.01722853 -0.04466496 0.031870622
-0.953038 -0.26984593 -0.03602235 0.19817273 0.16698398 0.18194747 0.036364764 0.19515796
0.047519546 0.15868235 -1.0175551 -1.0404233 0.18275394 0.018316317 0.026534904 0.044485185
0.80137646 -0.0020708656 -0.37300932 -0.035606943 0.03133498 0.00082379277 0.10114011 0.22726277
0.033667747 0.043991867 0.044176746 0.17335038 0.034018937 -0.01747886 -0.027263742 0.08076833
-0.21537179 0.08784053 -0.038120613 0.00971446 0.14132726 0.030831883 -0.0058754925 0.02544079
-0.02147144 0.229499 -0.038943555 0.04460675 0.01654451 -1.091755 0.084651954 0.08538627
-1.8572886 0.048608556 0.026521843 0.042434435 0.14583944 -0.033062253 0.16009799 -0.38293073
-0.023393882 0.0064087226 0.0123279765 0.18483491 0.02420685 -0.76808053 0.4074522 -0.004703252
0.03381485 0.11693493 0.5827288 0.024484841 -0.023665905 0.022000976 -0.1552364 0.19075438
-0.93570596 0.02149506 0.21529864 -1.0758743 0.024211373 0.07241147 0.38557395 -0.07091936
-0.029755216 0.025774173 -0.09957644 -0.6853557 0.0064590783 0.029766772 0.8437147 0.20015801
0.2307973 -0.010701756 -0.046422966 0.041518573 0.07379478 0.17617556 0.027309338 0.010039936
-0.03601698 0.053028103 0.011595303 -0.025457287 -0.002681057 0.16843742 -0.032165047 -0.22623962
0.1705678 0.19069432 -0.013886921 -0.72636014 0.034459583 0.043860927 -0.0020707503 -0.31078765
-1.2445883 0.036881775 0.5999165 -0.05210198 0.18361904 0.09404975 0.0020516824 0.00636137
-0.0148406215 0.038663354 -0.007928301 -0.88442236 -0.15712681 0.11152763 -0.040488932 0.0017864932
0.57554847 -0.18869533 -0.027970659 0.0056089703 0.6958394 0.4519631 0.13519272 0.0392793
-1.8608222 -1.4466542 0.0150346635 0.7111475 -0.16974945 -0.03835111 0.4118957 -1.1262418

fc3.bias f4 [2]
00000000: fee3 2b3d f549 253d
0.041965477 0.040353734
